recipes-framework/tensorflow-lite/files/demo/mnist.tflite (tflite, 408464 bytes, 4 tensors)

sequential/dense/BiasAdd/ReadVariableOp/resource f4 [128]
000000 e7 2f 9c 3d da 98 1c 3b 4f 30 a4 3d 58 d9 81 bc
       0.07626324 0.0023894818 0.08017027 -0.015850708
000010 9d dd 83 3d fe f0 4f 3b 55 16 69 3b 3e e3 d6 bd
       0.06438754 0.0031729336 0.003556629 -0.10492562
000020 f2 b0 33 3d c0 3d bf 3c e0 cc f9 3d 7b 74 31 3d
       0.04386992 0.023344874 0.1219728 0.043323975
000030 64 b8 48 bd f9 a6 ce bc 03 f6 0a 3d 1a 2a 07 3e
       -0.049003974 -0.025226103 0.03392602 0.13199654
000040 03 2f 32 bd 44 a4 86 3d f8 32 ae bc 25 43 10 3d
       -0.043501865 0.065743 -0.021264538 0.035220284
000050 d0 1b 31 bc 8a 46 f3 3d f3 e8 49 3b f9 f6 ab 3c
       -0.010809854 0.11878689 0.0030809015 0.02099179
000060 36 40 d8 bc f2 00 0d 3d f2 ed 2e 3d 75 ff 8a 3d
       -0.026397806 0.03442473 0.04270739 0.06787006
000070 27 e4 d2 bc 96 dd 95 3d 56 a0 f1 bd c9 4f 8b bd
       -0.025743557 0.07317655 -0.1179816 -0.06802327
000080 55 fe b6 bc 49 c9 c1 3b f6 f6 bb bd b3 22 02 3e
       -0.022338072 0.0059138876 -0.091779634 0.12708549
000090 db 32 47 bd 8e 5c 51 bd ae cd ff bb 26 10 64 3d
       -0.048632484 -0.051113658 -0.0078065014 0.055679463
0000a0 87 93 f7 3d 8f f9 71 3d fd 7c 86 3d e5 a9 9e 3b
       0.120886855 0.05907589 0.065668084 0.0048420304
0000b0 13 5c 38 3e cf 6d a5 3d cf 8e 92 bd 81 0c 13 bd
       0.18003874 0.08077585 -0.07156145 -0.035900597
0000c0 da 24 85 bc a3 2b a8 3d 26 94 39 3d 98 c9 0c 3c
       -0.016252924 0.08211448 0.0453073 0.008592986
0000d0 ce e5 b6 3d dd 79 1f 3d 4a 80 90 bd 75 25 1e 3e
       0.089305505 0.038934577 -0.07055719 0.15443976
0000e0 0a 05 77 3d 28 49 ab 3c 44 fd 97 3c 7d a0 c2 bd
       0.06030754 0.020908907 0.018553384 -0.09503267
0000f0 40 ea 17 3e e0 3a dc bd 9c c8 da bd 27 27 e3 3c
       0.14835453 -0.10753417 -0.106827945 0.02772863
000100 31 5a 0a 3d 9f 86 08 bd 12 78 c1 bd 97 82 e6 39
       0.03377742 -0.03333151 -0.0944673 0.00043966316
000110 fc b8 9c 3d 5e ed be 3d 38 bb 64 3d 90 6b ea 3d
       0.076524705 0.09322618 0.05584261 0.11446297
000120 f9 09 b5 3c af 3a ca 3d 98 e6 c7 3d 29 cc 61 3d
       0.022099482 0.09874474 0.09760779 0.055126343
000130 02 97 f2 bb 7b e8 49 3d cf 6f b7 3d 89 01 e0 bd
       -0.0074032554 0.049293976 0.08956873 -0.10937793
000140 95 22 02 3d 48 cc 13 3e 94 68 37 bd f7 d7 f8 bc
       0.03177126 0.14433396 -0.044777468 -0.030376418
000150 5c 3e ef bc 4c e7 c2 3d 1d b6 07 be c6 d1 6c bd
       -0.02920454 0.09516773 -0.13253064 -0.057817243
000160 be 49 f2 bb 28 b1 cc 3d 6b 00 21 3e ca d2 d9 bb
       -0.0073940447 0.099947274 0.15722816 -0.0066474425
000170 b0 c2 10 bd 32 84 2c 3d 0a f6 ab 3c 3c 9c e1 3d
       -0.03534192 0.04211826 0.020991344 0.110161275
000180 d4 d4 89 3d 7a 3c 92 bd 18 c8 a5 3d 97 73 46 bd
       0.06730047 -0.07140441 0.080948055 -0.04845008
000190 b9 da 88 3d 00 93 59 bc c1 6c fb 3d f1 78 7a 3d
       0.06682343 -0.013279676 0.122766025 0.061150495
0001a0 81 7f ba 3d de 71 ea 3d 78 05 0c 3e 7c 2c 49 bd
       0.09106351 0.114475 0.13673961 -0.04911469
0001b0 72 35 53 bd e4 05 6d 3c df 4b 8a 3d 46 85 67 3d
       -0.05156464 0.0144667365 0.067527525 0.056523584
0001c0 e3 a1 a1 bc 9a 6c a7 3d e0 93 32 3d 6f 13 0c bd
       -0.019730514 0.08175011 0.043598056 -0.03419822
0001d0 06 0e d3 3c 15 79 90 bd fa ee b1 3d ec 84 d6 3d
       0.025763523 -0.070543446 0.08688159 0.104745716
0001e0 fa 54 f0 3d 31 bf 8d 3d 0f 73 f0 3d a6 a9 c2 3d
       0.11734958 0.069212325 0.11740696 0.09505014
0001f0 b4 b8 6f 3e 0e a2 e0 3c 54 3d fc bc f3 99 9a bb
       0.23410302 0.027421024 -0.030790962 -0.004718059

sequential/dense_1/BiasAdd/ReadVariableOp/resource f4 [10]
000000 4d 1e b6 bd 26 e1 62 3d 90 fd e8 3b 68 65 e9 bd
       -0.08892498 0.0553905 0.007110305 -0.11396295
000010 5b ab 51 3d 03 8d 00 3e 2a f3 02 bd 65 68 32 bc
       0.051188808 0.12553792 -0.03197018 -0.010889147
000020 b8 36 a1 bb 40 02 09 3b
       -0.004919853 0.0020905882

sequential/dense/MatMul f4 [128, 784]
000000 00 67 48 3c d8 93 ab 3c bc 17 f1 3c f2 c5 f2 bc
       0.012231588 0.02094452 0.029430263 -0.029635403
000010 76 54 5e 3d d4 13 15 3d ba 7e 7c bd 9f 7a 98 3d
       0.054279767 0.036395863 -0.061644293 0.07445263
000020 18 da 22 bc e8 c3 04 bc 94 4f 94 bd ce 39 52 3d
       -0.009939693 -0.008103348 -0.07241741 0.051324658
000030 76 11 6b bd 4c f3 ce 3c a9 3b 54 3d 6c 13 d7 bc
       -0.0573897 0.025262497 0.05181471 -0.026254378
000040 15 ae 2b bd f8 80 13 3d 00 14 b2 39 90 c5 0f 3d
       -0.041914064 0.036011666 0.00033965707 0.03510052
000050 90 5d eb 3b 82 31 60 3d 71 6a 30 bd 5e da 75 3d
       0.0071827844 0.054734714 -0.04307026 0.060022704
000060 82 54 c0 bc 80 88 24 3b c8 c3 e8 bc 23 7d 92 3d
       -0.023477796 0.0025105774 -0.028413668 0.07152774
000070 b0 3f 41 bc 90 4f 01 3c 82 89 62 bd 96 78 44 3d
       -0.011794969 0.007892504 -0.05530692 0.047966562
000080 6b 23 88 bd 7f 74 fe 3c aa 83 a7 bd b5 14 27 be
       -0.066473804 0.031061409 -0.0817941 -0.16316493
000090 17 d1 88 bc d3 6d 86 bc 3f 34 ad 3c 5e 63 4f bd
       -0.016701264 -0.01640979 0.021143077 -0.050631873
0000a0 3f ac 31 be 4d a5 3b bd df ea 0c be f9 e9 75 bd
       -0.17350863 -0.04581194 -0.13761471 -0.060037587
0000b0 bd 2b 8d 3d e8 4c 94 bd ee 64 ad bd 7b c8 e0 bd
       0.06893108 -0.07241231 -0.084665164 -0.109757386
0000c0 29 39 d4 bd d0 97 f9 bd e4 7c 87 bd a4 c0 93 bd
       -0.10362465 -0.12187159 -0.06615618 -0.07214478
0000d0 c5 6d 30 bd b4 f3 6d bd f0 cb 82 3b 40 0d a9 3b
       -0.043073434 -0.05809374 0.0039915964 0.00515905
0000e0 0b 97 07 bd fa 59 10 bd 60 6f 43 3d 4a 18 d3 bd
       -0.03310303 -0.03524206 0.047713637 -0.10307367
0000f0 11 b4 84 bd 4f 34 7d 3d 41 0b 50 bc 1e f1 9c bd
       -0.064796574 0.061817463 -0.012697996 -0.07663177
000100 5f c8 72 3d 25 bf 8d 3d 44 f5 a2 3d a8 19 ae 3d
       0.05927312 0.069212236 0.07956937 0.08500987
000110 74 c4 13 3e 6e df 14 3c b1 89 1b 3e 55 65 c3 3a
       0.1443041 0.009086473 0.15189244 0.0014907519
000120 17 95 08 3d 39 7d b4 3d 63 5d cd bc f4 ee 4e 3d
       0.03334531 0.08812947 -0.025068944 0.050520852
000130 96 1f 3f 3d 1b 09 f0 bc 3b 03 13 37 3b e6 92 bd
       0.046660982 -0.029301217 8.762635e-06 -0.07172819
000140 a9 27 27 3d d5 f2 17 3d 62 21 7e 3d 26 d2 23 bd
       0.040809307 0.037096817 0.062043555 -0.039995335
000150 82 24 18 3d 38 0e b3 3c a6 2c 81 bd 5e 6a aa bc
       0.03714419 0.021857366 -0.06307344 -0.020802673
000160 c4 8a 83 bb 96 f3 5f bb 4a 31 b4 bd 8b 8f d5 bb
       -0.004014345 -0.0034172288 -0.08798464 -0.006517356
000170 f2 7b 67 bd 17 39 98 3d f9 b5 c0 3d 5e 82 21 3b
       -0.056514688 0.07432764 0.094097085 0.0024644355
000180 11 ae 54 bc 8b 64 41 3d 5e ea 00 bc 57 27 8f bc
       -0.012980954 0.047215026 -0.0078683775 -0.017474813
000190 9a 8b 83 bd 96 13 96 3c 8f eb 03 3d 12 d2 67 3c
       -0.06423111 0.018319886 0.032207068 0.014149206
0001a0 7f 32 1e bd 7f c6 42 bd 6a 09 18 3d 09 c3 9b bd
       -0.038622376 -0.047552582 0.037118353 -0.076055594
0001b0 f2 ef b8 bc 36 d7 f9 3d 6f 29 84 3d 36 67 82 bd
       -0.022575352 0.12199251 0.06453215 -0.06367342
0001c0 58 6f 60 3c cd ea 17 3d f9 ef a5 3c b7 fc 19 be
       0.013698421 0.037089158 0.02025603 -0.1503781
0001d0 23 26 97 bd ba be b9 3c b6 9c 44 3d 33 43 98 3d
       -0.07380321 0.022673953 0.048001014 0.07434692
0001e0 b8 39 ff 3c 90 36 d9 3d 4b 5a a8 3d ee 03 35 bd
       0.031155452 0.1060611 0.08220347 -0.0441932
0001f0 a5 1e 9f bd 3f c0 29 3c 1e b5 22 bd 42 09 b0 bd
       -0.07769517 0.010360776 -0.039723508 -0.08595516
000200 05 62 f3 bd 90 04 7b 3d 56 a3 34 3d 28 d7 3e bd
       -0.1188393 0.061283648 0.04410108 -0.046591908
000210 2d 44 e8 bd 59 25 e0 bd c3 eb fb bc 51 80 b5 bd
       -0.113411285 -0.109446235 -0.030752068 -0.08862365
000220 0a ba c3 bc e5 1d d7 3c 8e 65 ad bd 88 1f c5 bd
       -0.023892421 0.026259372 -0.08466636 -0.09625155
000230 4f 07 a3 3d ca ad ee bc 92 fb e7 bd b0 fd 2b 3d
       0.079603784 -0.029135603 -0.1132728 0.041989982
000240 40 09 83 3d aa 3b 56 3d 14 70 a5 3d 69 05 d8 3d
       0.06398249 0.052302994 0.08078018 0.10547907
000250 fe 17 c6 3d 1d 20 39 3d 43 0f 59 bd 14 6a 8b bb
       0.09672545 0.04519664 -0.05299307 -0.004254589
000260 9e 38 e8 bc 9c 61 1e bd 63 1a 2e bd 8f 79 ae bd
       -0.02834731 -0.038667306 -0.042505633 -0.08519279
000270 71 a6 0e bd 7b df b6 bc 65 0f 37 bd 4c 5f 0f be
       -0.0348267 -0.02232336 -0.044692416 -0.14001197
000280 13 fa ef bc 29 9d d2 bd ad bc 01 be a2 f5 b6 bd
       -0.02929405 -0.10283882 -0.1266963 -0.089335695
000290 a2 3f 6d bd 61 5f 6e bd 1a e6 06 be 56 65 d6 bd
       -0.057922013 -0.05819643 -0.13173714 -0.10468547
0002a0 87 9f 05 bd 7b cd 5d bd 71 52 e3 bd 4f e3 67 bd
       -0.03262284 -0.05415104 -0.11099709 -0.056613263
0002b0 54 4f 92 3c 20 bc 8a 3d 50 9c bc 3c ea b3 19 bd
       0.017860092 0.06774163 0.023023754 -0.037525095
0002c0 a4 5a b0 bd e5 d5 8e 3d 00 b1 e6 bd 57 c5 c2 bd
       -0.08611038 0.06974391 -0.11264229 -0.09510296
0002d0 e9 6d 2d bd 0d 86 66 bd 3b 60 e8 bd 6a 8d 0f 3d
       -0.042341147 -0.056280185 -0.113464795 0.035046972
0002e0 98 8c 22 3d 81 e3 da bb c0 96 80 3c da a2 d1 bb
       0.039684862 -0.0066799526 0.015696883 -0.0063975872
0002f0 24 05 36 be cf bf b9 bd 88 5f 25 bd 20 fd 16 be
       -0.17775398 -0.09069788 -0.04037431 -0.14744997
000300 45 1e 5c bd b9 b4 f4 bc b2 c0 6c 3d bf be a3 bd
       -0.053739805 -0.029871332 0.057800956 -0.07995366
000310 84 fb c8 bc 32 65 11 bd d6 86 39 bd 06 dd a8 bc
       -0.024533994 -0.035496898 -0.045294605 -0.020613205
000320 00 0f ff bd 2d 27 c3 bc a3 f0 db bd cd 36 c7 39
       -0.12454033 -0.023822391 -0.10739257 0.00037997068
000330 cb 5c 3d bd f3 d9 6f bd 87 78 a0 bd ba b1 a2 bc
       -0.046231072 -0.058557462 -0.07835489 -0.019860137
000340 d4 d4 fe bc 34 7d 8e bc 82 be 8f bd 9c 53 55 bd
       -0.031107344 -0.017393686 -0.07018758 -0.05208169
000350 95 15 8d bd b8 c8 94 bd aa 66 b2 bc a4 44 98 bd
       -0.06888882 -0.072648466 -0.02177747 -0.07434967
000360 34 37 d5 bd 43 eb bd 3c 57 e4 81 bd 03 4a 81 3c
       -0.1041092 0.02318347 -0.063423805 0.015782362
000370 1b 47 a8 bc 75 42 a2 3d 7c 8d b1 3d 8a 0d 51 bd
       -0.020541718 0.07922832 0.08669564 -0.051038302
000380 01 e8 1b bd 0f 1f 10 be 96 f3 87 3c f9 49 1d bd
       -0.038063053 -0.14074348 0.016595643 -0.038400624
000390 88 62 c2 bd 56 28 98 bd 08 0b 57 bd 06 c2 43 be
       -0.094914496 -0.074295685 -0.052500755 -0.19116983
0003a0 98 6c 81 bb b2 5e d2 bd bc 34 09 bd 0f 4f f4 3c
       -0.003949713 -0.10271968 -0.033497557 0.029822854
0003b0 48 06 5f bd 8e e5 f8 3c 2a 37 58 3d a1 f9 6f bd
       -0.05444935 0.030382898 0.052786984 -0.058587674
0003c0 73 4d 7a 3a f1 51 1b be c7 86 23 bd 15 5d 99 bc
       0.0009548284 -0.15167977 -0.039923456 -0.018721143
0003d0 5d 09 cb bd 80 b9 7c bd db 30 e9 bd 72 b7 00 bd
       -0.09913895 -0.061700344 -0.113862716 -0.031424947
0003e0 64 ec 36 bd 81 e6 3c 3c e4 9c 22 3d 19 6d 2c be
       -0.044659033 0.011529566 0.039700404 -0.16838492
0003f0 a2 9c c4 bd a0 84 2d 3d d3 da b6 bd b7 09 f9 bd
       -0.09600188 0.04236281 -0.08928456 -0.12160056

sequential/dense_1/MatMul f4 [10, 128]
000000 61 ab d7 3b a7 7b 98 3d a8 ce f6 3d 80 46 34 be
       0.0065817093 0.0744546 0.12051135 -0.17605019
000010 f4 a8 f4 bd 3b 55 ce be 7f 9d 06 be 80 ef 7a be
       -0.11946288 -0.402994 -0.13146017 -0.24505424
000020 a1 77 31 3e da 07 ac bd 4c b5 dd be 20 be 92 be
       0.17330791 -0.08399935 -0.4330238 -0.2866068
000030 7f 0d 59 3e 34 d0 5b be 9c 4e 8d 3d 12 be 1c 3e
       0.21196555 -0.21466142 0.06899759 0.15306881
000040 e7 cc 4b be 28 8c a6 be b3 9e 82 3e d7 3d df be
       -0.19902383 -0.32528806 0.25511703 -0.43601868
000050 a0 37 4b be 77 97 3c 3e 12 82 86 3e 8a 53 de 3d
       -0.19845438 0.18417154 0.2627111 0.108557776
000060 14 14 74 3c 42 18 6e 3e 6a 31 84 be fe 15 12 3e
       0.014897365 0.23251441 -0.2581895 0.14266202
000070 4b a8 a7 bd 26 7d 43 be 4f bb e6 3d 4f 4b a0 bd
       -0.08186396 -0.19090709 0.11266195 -0.07826864
000080 50 22 ad 3d 53 01 4d 3e dd cf 8e be 35 f0 03 bf
       0.0845381 0.20020036 -0.27892962 -0.515384
000090 8b f2 c5 be 6d ad 45 3e dc 44 3e be d4 a7 55 3b
       -0.38661608 0.19304438 -0.18580955 0.0032601254
0000a0 d5 00 bc bd 68 f2 5f be 01 a9 86 be fe 53 32 3d
       -0.09179846 -0.21869814 -0.26300815 0.043537132
0000b0 c6 fc 8a be 5c 35 8c 3e 35 db 92 3d b1 5b 63 3e
       -0.27145976 0.2738446 0.07170717 0.22202946
0000c0 f7 fd a0 bd 94 2e b5 3d 6d bc 0f 3e 1b 35 f3 3d
       -0.0786094 0.08846775 0.14036722 0.118753634
0000d0 8c 1a 9f be 63 d5 60 3d 36 31 a6 3e 8d 89 8d be
       -0.3107494 0.054891 0.3245942 -0.27644005
0000e0 fe fe a9 3d 2b 83 3b be e7 12 5a bd 3b f4 33 3e
       0.08300589 -0.18311755 -0.053240683 0.17573635
0000f0 db 44 13 be 41 eb 05 3e e5 0e 3f 3e 79 85 5f 3e
       -0.14381735 0.13078023 0.18658026 0.2182826
000100 70 b5 0a be 72 0a 03 3e 9f 79 cb be 73 7b 00 bd
       -0.13545775 0.12796953 -0.39741227 -0.03136773
000110 30 2f 43 be 5c 9b d0 be 03 97 51 3e b5 a8 4e 3e
       -0.1906097 -0.4074353 0.20467763 0.20181544
000120 b8 55 36 3e d6 46 38 be 07 c5 fe bc ea 4a 85 3d
       0.17806137 -0.17995772 -0.03109981 0.06508429
000130 1f 9e e4 bc 0c 73 83 3e 88 72 b9 be e2 56 28 3e
       -0.02790743 0.2567371 -0.36220193 0.16439393
000140 22 3d 6d 3e 0a e2 18 3c 44 66 d0 3e f2 b4 93 be
       0.23167852 0.009331236 0.40703022 -0.28848988
000150 87 01 59 3e 25 f7 8e be 1c 6a 86 3c b3 cc 4f be
       0.21191989 -0.2792293 0.016408019 -0.2029293
000160 f0 a2 0d bd c8 f9 25 bd b9 b9 c5 bd 78 45 41 bd
       -0.034579217 -0.040521413 -0.096545644 -0.04718539
000170 47 4d f3 bc 9f 71 38 be 64 55 97 be f3 a6 51 be
       -0.029699935 -0.18012093 -0.29557335 -0.20473842
000180 80 8a b0 bd 6c 7a 0b 3e c9 95 e4 bc 5f 65 8b 3e
       -0.08620167 0.13620919 -0.027903454 0.27225778
000190 ab d0 80 3e 47 1f d1 bd 50 c0 1d 3e 63 97 d9 bd
       0.251592 -0.10211044 0.15405393 -0.10624578
0001a0 43 35 19 3d 04 15 9d be 08 c4 3a be 30 ad 82 be
       0.03740431 -0.30680096 -0.18238842 -0.25522757
0001b0 ca c8 f5 3d 91 e3 b9 bd 36 80 98 3d 3c d4 34 be
       0.12001188 -0.09076608 0.07446329 -0.17659086
0001c0 b3 d8 85 be 32 62 07 be 01 db 28 be 56 33 f9 bd
       -0.2614189 -0.13221052 -0.16489793 -0.12167995
0001d0 92 4f 76 be 2b 10 d7 3d c9 50 10 3d 98 1d db be
       -0.24053791 0.10501131 0.035233293 -0.42796016
0001e0 c8 7b 42 3e 80 0c 4f 3e 41 e9 c3 be e7 a0 e6 bd
       0.18992531 0.20219612 -0.38263896 -0.112611584
0001f0 0e 64 96 be f2 b0 b0 bd 72 21 4a 3e 0a cb 16 39
       -0.2937321 -0.086275 0.19739321 0.00014380753
000200 23 63 2b be e2 be a4 be d8 9d 42 3d ed 68 0a 3d
       -0.16737036 -0.32176882 0.047513813 0.03379147
000210 c5 3a d8 be b4 dd c3 3e a5 34 bf 3d 4f 1d 18 be
       -0.42232338 0.38255084 0.09336213 -0.1485493
000220 95 f1 fb 3d 1e 99 a6 3d 0e 2e 86 3e ab 44 59 bd
       0.123019375 0.081346735 0.26207012 -0.053044003
000230 ea e0 03 3e a3 d5 28 3e a3 eb ae be 79 0f 97 3e
       0.12878767 0.16487746 -0.34164152 0.29503992
000240 5f 25 61 bd ba c2 39 3e d1 c8 20 3e db 72 12 3e
       -0.05496728 0.18140689 0.15701605 0.14301626
000250 ee d4 7d bd 3c 7b 26 3d 56 61 8e bd f4 8b 21 3e
       -0.061970644 0.04064487 -0.06952159 0.15776044
000260 7e a3 8c 3e 69 be 61 be 3a 8a d5 be 57 0b 9b bb
       0.27468485 -0.22045292 -0.4170702 -0.0047315764
000270 e0 8f 24 3e b3 ae cd 3b 77 76 42 3d c7 cf 13 3e
       0.16070509 0.0062769293 0.047476258 0.1443473
000280 0d 13 f4 bd 8c ad 54 3d 4a 79 96 be 99 4c 34 bd
       -0.11917696 0.05192332 -0.2938941 -0.04401836
000290 60 fa 86 3c ec 99 75 be 17 05 98 3e 0b 0c 0d 3e
       0.01647681 -0.23984498 0.29691383 0.13774125
0002a0 6c 35 14 3e 5c 89 a2 be af 90 98 3d d7 c1 8e 3e
       0.14473504 -0.31745422 0.07449471 0.27882263
0002b0 06 a7 82 3e b9 f9 b0 bb 45 28 12 be d0 c9 7f bc
       0.25518054 -0.005400863 -0.14273174 -0.015612081
0002c0 e8 0f 13 be f7 cd 5d be 12 de 1a 3e 43 7b 73 be
       -0.14361537 -0.216606 0.15123776 -0.2377749
0002d0 b4 2c 2b 3e 46 9e 44 3d 8a 2e f3 be a0 fb 52 3e
       0.16716272 0.048002504 -0.47496444 0.206038
0002e0 ef c4 78 bd cb c2 26 be 0b 13 8a 3d 87 e9 f4 bd
       -0.060734686 -0.16285245 0.067419134 -0.11958604
0002f0 d3 fb 11 3e 3c 37 8e be 54 8f ad bd 0f 0d 13 3d
       0.1425622 -0.27776515 -0.08474603 0.035901126
000300 ea 2a 04 be e0 81 74 3e 8c 5b 3a be d5 d2 7a 3e
       -0.12906995 0.23877668 -0.18198985 0.24494489
000310 d7 b5 a8 3d 67 16 bc be ae ee 4a be da cb ed bd
       0.08237808 -0.36735842 -0.19817612 -0.11611147
000320 9f 4a 91 be 91 9b 98 bb b9 21 a1 be 80 e5 17 3e
       -0.28377244 -0.004657217 -0.3147104 0.14833641
000330 75 41 a9 be ca bf 95 3c 53 7e e7 3e b0 28 a4 be
       -0.33057752 0.018279929 0.45213565 -0.32062292
000340 0e ab 14 3e 5a 23 13 3f 9e 1d a3 be a9 be a2 3d
       0.14518377 0.5747582 -0.31858534 0.07946522
000350 0a 64 8c be 92 05 44 3e 47 b5 a2 bd 34 98 96 3e
       -0.27420074 0.1914275 -0.07944732 0.29412997
000360 ae 49 4a be ca 98 cb 3d ba 64 69 be b9 e7 a2 3d
       -0.19754669 0.099412516 -0.2279233 0.07954354
000370 37 04 3e 3e 0c a8 64 be 03 c5 50 3e 22 cc a0 be
       0.18556295 -0.2232973 0.20387654 -0.3140574
000380 39 ce 44 be 74 eb 82 3e 6f 23 ab be 06 9f 9b be
       -0.19219293 0.2557026 -0.3342547 -0.30394763
000390 6e a0 4c be 7d dd 3f be 68 3d 9d bd 6f 80 41 3e
       -0.19983074 -0.18736835 -0.07677728 0.1889665
0003a0 86 ba b6 bd 6e a3 e4 3c 9e d9 71 bd 06 f5 59 be
       -0.08922295 0.02790996 -0.059045427 -0.21284875
0003b0 1d 2b 3c be 8b 16 6a bc bc 18 8d 3e 9f bd ca 3e
       -0.18375821 -0.014287601 0.27557933 0.39597794
0003c0 33 5b 81 be 3a 3c 88 be 80 77 e2 3e 58 42 52 3e
       -0.25264892 -0.2660845 0.44231796 0.2053312
0003d0 f5 24 66 3e 41 31 4e be 58 5b 1b 3e 8b 70 29 3e
       0.22475035 -0.20135976 0.15171564 0.16546838
0003e0 1e 32 01 3f 6c 5a 78 3e 0d ca 18 3e b6 68 93 be
       0.504671 0.24253243 0.14920826 -0.28790826
0003f0 6d 61 28 3e 77 68 09 be 08 ea 9a 3e eb 48 9a be
       0.16443415 -0.13418756 0.30256677 -0.30133757
